exported_models/model.onnx (onnx, 16816 bytes, 13 tensors)

layers.0.weight f4 [64, 19]
000000 ec 8e 2c 3e 6e fb d2 3d cd b4 94 bd 16 86 94 3d
       0.16851395 0.10301863 -0.072610475 0.07252137
000010 a7 c9 95 bd 22 6c 7a 3d 38 da c7 bd dc 33 e9 3d
       -0.07313853 0.06113828 -0.09758419 0.113868445
000020 de 3f 32 3e 29 6d 03 be fa b0 b3 3d 45 98 64 3c
       0.17407176 -0.1283461 0.0877399 0.0139523195
000030 1a f6 17 3e 32 ad 37 3d 70 f2 19 3d d6 07 1c 3d
       0.14839974 0.044842906 0.037584722 0.03809341
000040 5c 72 56 3d fc b7 86 bc ae 6b ca bc 89 a5 70 3c
       0.052355155 -0.016445152 -0.024709549 0.014687904
000050 33 9a 96 bd 65 76 40 3c 20 b3 01 bc b1 0c af 3d
       -0.0735363 0.011746977 -0.007916242 0.085473426
000060 a4 8d fd bc 2f 05 e8 bb a9 30 bb 3d 07 e0 2b be
       -0.030951329 -0.007080696 0.091401406 -0.16784678
000070 21 8a a5 3b 73 94 2f bd 3a 4e 8c 3d 1e 71 99 bd
       0.0050518666 -0.04286618 0.06850858 -0.074922785
000080 c3 17 10 3d be c6 69 3d 63 d6 4e bc d8 42 30 3d
       0.03517891 0.0570743 -0.012624356 0.043032497
000090 77 32 1d 3d d7 89 64 3d 6d 9c 3f 3c a2 75 f0 bc
       0.038378205 0.055795517 0.01169501 -0.029352967
0000a0 13 41 92 3c 96 aa 8d bc a2 02 a5 3d 19 18 e6 3d
       0.017853295 -0.017293256 0.08057143 0.11235065
0000b0 97 bf 7f 3d af a3 fc bb 7d 16 c8 3d 8e f2 9c bb
       0.062438574 -0.0077099423 0.09769914 -0.004789657
0000c0 97 16 fd 3d f7 9f da bd 6a 7a 3c be 42 5d 72 bd
       0.12357824 -0.10675042 -0.18406072 -0.05917097
0000d0 36 3e 05 be 0a 5e 8a 3d d3 80 e5 3d d4 25 e9 3d
       -0.13012013 0.06756218 0.11206212 0.11384168
0000e0 d3 ab 2e bc 33 a9 da 3d 4a 35 0e 3e ea 4a f3 bd
       -0.010661083 0.106768034 0.13887516 -0.11879523
0000f0 d4 ee 2d 3c 10 84 08 be c3 3f 50 3d 32 78 ff bc
       0.010616023 -0.13331628 0.050842058 -0.031185243
000100 b1 83 c6 bd 72 e6 24 3d 2f 9d 1d 3e 17 07 70 be
       -0.09693087 0.040258832 0.15391992 -0.23440205
000110 ab d8 da bd 04 2b b0 3c 9c 2e 05 3e ea 84 a4 3d
       -0.106858574 0.021504886 0.13006061 0.08033164
000120 15 cb 1a 3c 37 51 5d 3c f7 bc 27 be 15 50 09 be
       0.009447833 0.013508133 -0.16380678 -0.13409455
000130 90 7e 83 3d 7c 47 be 3c 35 28 39 3c f2 23 28 3d
       0.06420624 0.023227446 0.01130109 0.041049905
000140 e2 6f b4 bd 03 05 12 bd 02 d4 fd 39 c1 16 0d be
       -0.088104025 -0.03564931 0.00048413879 -0.13778211
000150 54 1b 58 3e 8f d6 32 bd d5 b7 32 3d 1c 75 00 be
       0.21104175 -0.04366165 0.043632347 -0.12544674
000160 b8 0c 45 bc 67 cd e1 3c 70 b5 ef 3c c5 5a eb 3b
       -0.012026958 0.027563764 0.02926132 0.0071824514
000170 1f 68 0b 3d e3 dc 1e 3d 89 73 32 bd 9e cb f2 bd
       0.034034844 0.038784873 -0.043567214 -0.11855243
000180 50 ea c1 3d 15 2f 60 bd 86 e7 53 bc 1b c8 07 be
       0.0946852 -0.0547324 -0.012933617 -0.13259928
000190 e0 fd 8b bb b8 b2 24 3d 92 6b 75 3c f8 c1 45 be
       -0.0042722076 0.040209502 0.01497926 -0.19312274
0001a0 c9 7b 08 3c 1f 7b a1 bd d9 1a 02 be 42 50 95 bd
       0.008330294 -0.078848116 -0.12705554 -0.072906986
0001b0 a6 02 f8 bd 20 a5 7e bd 9f da 78 3d 48 04 d5 3d
       -0.1210988 -0.062169194 0.06075537 0.10401207
0001c0 b0 25 7b 3d 65 51 e4 bd e1 7e 7c 3d fc 65 b1 bc
       0.06131524 -0.11148337 0.06164444 -0.021655075
0001d0 eb ec 8d 3d 50 6a 67 bd ef 90 ac bd 61 71 11 bd
       0.06929954 -0.056497872 -0.084260814 -0.035508517
0001e0 68 0e 1b bd 8b 83 89 bd 50 e8 9c 3d 45 f3 db bd
       -0.037855536 -0.06714543 0.076614976 -0.10739759
0001f0 61 04 77 be 54 fe 81 bd a2 94 90 3d 84 b3 ae bd
       -0.24122764 -0.06347337 0.070595995 -0.08530334
000200 c0 27 bb 3d 0b 3b 62 3c 70 a4 a3 3d 79 be c2 ba
       0.09138441 0.013808022 0.07990348 -0.0014857791
000210 af 6a 84 bd e1 f3 3f 3e ca 36 90 3c b4 de fb 3a
       -0.06465661 0.18745376 0.01760425 0.0019216151
000220 84 c1 f1 bc b3 a0 12 be 75 0a 19 3d 49 b5 fb bb
       -0.02951122 -0.14319114 0.03736349 -0.007681523
000230 5c fc 88 bc 08 61 d0 bd ee ba b8 3d 8f 00 52 be
       -0.016721897 -0.10174757 0.09020029 -0.20508026
000240 cb 75 98 bd cf 35 36 3e ba 39 9a 3d 17 ef df 3d
       -0.07444342 0.17793964 0.07530542 0.10934275
000250 01 71 03 3d 86 92 78 bc a2 4f e3 bc 95 ef 7b 3b
       0.03209019 -0.015171653 -0.027747933 0.0038442363
000260 4b 95 1e be ea 07 e1 bd 97 b8 05 3e 01 a8 55 bd
       -0.15486638 -0.109878376 0.13058697 -0.052162174
000270 f4 16 ca 3d bb 8c 0e 3d 5a 23 9a 3c f0 9a 33 bd
       0.09867659 0.03480218 0.018815685 -0.04384893
000280 f6 6f 8b 3d 9e 4b 3e 3d 8a c1 81 3c 2b ee ba bd
       0.06808464 0.046458833 0.015839357 -0.09127458
000290 a7 54 55 3d a4 10 3c bd c3 80 b2 bc c0 49 b9 3c
       0.052082684 -0.045914307 -0.021789914 0.022618175
0002a0 6b 62 d6 3d d5 6a 4c bd 64 58 7a bd 18 4e 04 3d
       0.104679905 -0.04990657 -0.061119452 0.03230104
0002b0 66 b0 2a 3d 2e 9c 03 bd e8 d6 95 3b 9f 4c 06 bd
       0.041672133 -0.032131366 0.004572738 -0.032787915
0002c0 fe 8e 58 3d 9f d2 03 3d 57 f9 25 3e be 9f 8e be
       0.052870743 0.032183286 0.16208397 -0.2785625
0002d0 9c 03 e3 3c 02 5e 90 bc 4a 13 e8 3b 96 f9 35 3d
       0.027711682 -0.017622951 0.0070823776 0.044427477
0002e0 ca 38 9d 3d 1a 0d b5 3d e5 91 5e 3c 20 27 9d 3c
       0.07676847 0.088403895 0.013584589 0.019183695
0002f0 b1 af 92 bc c2 cd f0 bb 88 05 98 3d b3 7c ae bd
       -0.017906042 -0.007348747 0.0742293 -0.08519878
000300 2a 38 c6 3d 90 45 92 3d 38 5c 44 bd cd 56 1b bc
       0.09678681 0.07142174 -0.04793951 -0.009481144
000310 d6 66 e4 bb c1 9c 60 bc a4 14 a6 3d 65 7a 88 3c
       -0.006970267 -0.013709248 0.08109406 0.016659925
000320 1c 86 6c be 6c 5f b2 bb 61 1e 23 3e 1a d9 e9 3c
       -0.23098034 -0.005443504 0.15929557 0.028545905
000330 7f dd e5 3c bb 7d cf bd a0 53 d6 bd 70 a3 f5 bd
       0.02805972 -0.10131403 -0.10465169 -0.11994064
000340 cd b1 9c bd f6 a0 ae 3d 84 68 27 3d b4 b7 c7 3c
       -0.076511 0.085267946 0.04087116 0.024379589
000350 3b cc fd bc 78 76 fb bd a0 ef 12 bd 5b af b7 3b
       -0.030981174 -0.122784555 -0.035873055 0.005605621
000360 78 9e 55 3d 28 ac a0 3d 26 c0 d2 bc 92 63 7c be
       0.05215308 0.07845336 -0.02572639 -0.24647358
000370 3f bc 27 bd 93 a4 65 3e 58 18 6f bd d6 12 10 bd
       -0.04095101 0.22426061 -0.058372825 -0.035174213
000380 46 88 c7 bd aa ed 47 3d 1f 9f 50 3d 80 d0 d8 3d
       -0.09742789 0.04881064 0.050933 0.10586643
000390 3f b7 10 be 70 05 92 bd a2 c9 21 bd 10 f2 86 3d
       -0.14132403 -0.07129943 -0.039498933 0.065891385
0003a0 22 72 b1 3d 5c 3c 3f 3d 11 93 02 3d fd 14 5f 3c
       0.08664347 0.046688423 0.031878535 0.013615844
0003b0 ae 27 33 bd a8 50 9e bc fa d5 f6 bc cd c0 40 bb
       -0.043739013 -0.01932557 -0.030131329 -0.0029411793
0003c0 76 a9 22 bd 35 94 57 bd 63 10 b3 3b 6a 25 0d bd
       -0.03971239 -0.052631576 0.0054646 -0.03445951
0003d0 d1 93 df bc 3c 42 97 bc 07 ef 86 bd 08 db 55 3d
       -0.027292164 -0.0184642 -0.065885596 0.052210838
0003e0 82 2f 26 bd ac 61 5f 3d 51 5d 05 bc b5 57 5f bd
       -0.04057265 0.054536507 -0.008139924 -0.054527003
0003f0 b1 2b 25 3d 4d 2c 11 3d d0 45 a5 3d e5 e1 a2 be
       0.04032487 0.03544264 0.08069956 -0.3181297

layers.0.bias f4 [64]
000000 ab bb c9 36 93 75 67 37 42 c9 38 b3 6a ba 38 b6
       6.012114e-06 1.3796048e-05 -4.302388e-08 -2.7526644e-06
000010 40 41 15 30 a2 83 44 35 f8 8b 55 b0 06 c5 db b4
       5.429861e-10 7.320724e-07 -7.7687856e-10 -4.0935282e-07
000020 e0 0c 08 32 e0 20 9b b6 e7 1b 26 b3 14 1e 02 b1
       7.919169e-09 -4.623187e-06 -3.8675264e-08 -1.8934587e-09
000030 ec d5 74 35 44 df 28 33 85 5f dd b2 b7 02 13 34
       9.120838e-07 3.9318607e-08 -2.5771223e-08 1.369143e-07
000040 1c 80 80 32 d7 ae da b0 18 b9 13 b1 be c6 0c 32
       1.4959419e-08 -1.591128e-09 -2.149653e-09 8.194261e-09
000050 ef 6b e8 32 00 aa 2a b1 50 02 39 b1 bc 3e dc af
       2.7057437e-08 -2.483489e-09 -2.6922358e-09 -4.0062342e-10
000060 de 94 40 b6 94 b2 4d 31 3b e6 6e b1 90 5f 49 b3
       -2.8696882e-06 2.9932936e-09 -3.476443e-09 -4.6885873e-08
000070 d4 1e 98 33 af 2c df 30 38 40 81 b6 3c f9 17 33
       7.083659e-08 1.6238085e-09 -3.8519756e-06 3.5384105e-08
000080 94 c6 8a af ca aa 93 31 ae d9 c7 b6 fe d0 49 37
       -2.5243152e-10 4.2976795e-09 -5.9560034e-06 1.2029193e-05
000090 c4 a8 7e 32 a3 d4 02 b3 e0 5e 14 b3 f1 80 94 36
       1.4823119e-08 -3.0461376e-08 -3.4545224e-08 4.4257545e-06
0000a0 9f a9 4f b2 60 a1 8f 34 30 a5 21 b3 14 94 02 38
       -1.2087553e-08 2.675324e-07 -3.763597e-08 3.1132324e-05
0000b0 5e 3a 2f 32 1a 12 40 32 70 0e 6e b4 58 71 57 37
       1.0199612e-08 1.1179987e-08 -2.217073e-07 1.28413885e-05
0000c0 e9 fc 90 35 00 ee a7 2c a2 59 92 b1 ce 57 e1 35
       1.0802443e-06 4.7728488e-12 -4.2593493e-09 1.6789361e-06
0000d0 7c e9 72 34 96 3f 4a b3 ae 49 f8 34 6c 5d 02 b6
       2.2622947e-07 -4.708962e-08 4.624721e-07 -1.9425888e-06
0000e0 5e b0 8e 33 05 7f dc 32 b9 e8 33 b5 60 39 31 b3
       6.644471e-08 2.5669133e-08 -6.702135e-07 -4.1263206e-08
0000f0 33 50 c4 33 08 aa 30 b6 16 92 86 36 44 df 27 32
       9.1415494e-08 -2.6325015e-06 4.010518e-06 9.771444e-09

layers.1.weight f4 [64]
000000 05 6d 01 3f 70 81 b4 3e 99 f5 02 3f 0c 9a 0d 3f
       0.50556976 0.35255003 0.51156 0.5531318
000010 c1 ee d3 3e 45 c1 c8 3e e3 0d ee 3e 19 39 0e 3f
       0.41393092 0.39209953 0.4649497 0.55555874
000020 0b ec b7 3e eb c3 25 3f f2 60 0e 3f aa 2c 06 3f
       0.35922274 0.6475207 0.55616677 0.524119
000030 b6 04 89 3e 13 dd 1f 3f 99 1d 0e 3f 2b e5 10 3f
       0.26761407 0.6244671 0.5551391 0.5659968
000040 15 bc bf 3e c2 80 02 3f 72 30 e0 3e 23 3c b3 3e
       0.37448183 0.5097772 0.4378696 0.35006818
000050 88 bf 20 3f 23 e3 c3 3e 23 d9 9d 3e a5 de 08 3f
       0.62792253 0.3825923 0.30829725 0.5346473
000060 ee 27 05 3f e9 34 0f 3f 15 ef ae 3e ca c0 cb 3e
       0.5201405 0.5594011 0.3416678 0.39795524
000070 28 be 18 3f c0 08 1e 3f 92 b0 d4 3e f7 2f e6 3e
       0.59665155 0.617321 0.41540962 0.4495847
000080 1d 53 08 3f 05 0b 13 3f c2 69 0a 3f ec aa 0c 3f
       0.5325182 0.5743869 0.54067624 0.54948306
000090 43 da 02 3f 04 da fe 3e 91 33 1b 3f c5 35 20 3f
       0.5111429 0.49775708 0.6062556 0.62582046
0000a0 3d 56 05 3f 14 09 10 3f d9 14 a9 3e 6f 4a ff 3e
       0.52084714 0.5626385 0.33023718 0.49861476
0000b0 6e 07 05 3f 2e d8 e5 3e 29 02 e3 3e 9b ac 05 3f
       0.5196446 0.44891495 0.44337586 0.522165
0000c0 e0 26 14 3f fe 61 01 3f 40 00 32 3f 7f 7f 89 3e
       0.5787182 0.5054015 0.6953163 0.26855084
0000d0 7b 5b 08 3f dd 56 06 3f 19 be c9 3e 64 38 1d 3f
       0.5326459 0.5247629 0.39402846 0.6141417
0000e0 e3 26 05 3f 4e a5 f8 3e 9b d9 fa 3e 18 f2 a8 3e
       0.5201246 0.48563617 0.48994145 0.32997203
0000f0 b9 b2 36 3f d8 42 10 3f ba 72 1b 3f 5b 91 03 3f
       0.7136646 0.56351995 0.60721934 0.5139367

layers.1.bias f4 [64]
000000 b8 fb b0 bd 99 7c fa bb 26 45 87 bc f3 1f 96 bd
       -0.086417615 -0.0076442477 -0.016512465 -0.073303126
000010 a8 77 b7 bd 29 01 fb 3c 33 fa e2 bd 35 73 b7 bd
       -0.089583695 0.030640202 -0.11082878 -0.08957521
000020 ab 4b f2 3c 57 9f 2c 3d 85 c6 ce bd 0c 61 cc bd
       0.029577097 0.042144146 -0.10096458 -0.09979448
000030 9a 9d df 3c 1c 13 71 bd 0f a8 35 be d1 06 7a bc
       0.02729683 -0.058856115 -0.1773989 -0.015260414
000040 32 6e b6 3c c5 c3 e3 bd 71 fd de 3c ed be dd 3c
       0.022269342 -0.111213244 0.02722046 0.02706858
000050 38 c5 2d be fe 99 0c 3d 34 ae 97 3c 55 45 20 3c
       -0.16969764 0.034326546 0.018515684 0.009782155
000060 f8 6a a1 bd 04 34 02 be d0 e8 36 3d 5e b3 f2 ba
       -0.07881731 -0.12715155 0.04465562 -0.001851659
000070 cd 9b 33 be a9 7d 45 be 76 4f dc 3c a0 e2 df 3b
       -0.17539902 -0.19286217 0.026893359 0.0068324357
000080 a9 7a c9 bd 86 b1 f9 bc 37 7e b1 3c bf 63 0e be
       -0.09837849 -0.030480158 0.02166663 -0.13905238
000090 b7 02 91 3c c7 7b 07 3a 43 ee 35 be 84 00 0b be
       0.01770149 0.00051682856 -0.17766671 -0.13574415
0000a0 44 46 1f bd f2 d9 25 be 0e ec ed 3c 9f c6 46 bd
       -0.03888537 -0.16196421 0.029043224 -0.048529264
0000b0 fe 3d af bd 73 fd 8f 3c 98 13 05 3d 1a 8e 02 be
       -0.08556746 0.017576909 0.03248939 -0.1274952
0000c0 8b 3a a3 bd 3c 05 0a be 03 2e 44 be 40 2f d7 3c
       -0.079701506 -0.1347856 -0.19158177 0.026267648
0000d0 cd cb 84 bd 48 07 22 bd 6e 56 45 bc 5a 72 60 bd
       -0.064841844 -0.039557725 -0.012044532 -0.054796554
0000e0 34 c3 a6 3c 89 e3 c6 3c 0e b1 30 3d 46 61 fd 3c
       0.020356752 0.02427842 0.043137603 0.030930173
0000f0 72 15 6b be bd 1a 0d be 91 b0 10 be d2 6a b6 3c
       -0.229574 -0.13779731 -0.14129855 0.022267733

layers.1.running_mean f4 [64]
000000 53 fa 30 3e 13 16 86 3d 23 4c 59 3d a4 bd 03 be
       0.17282991 0.06547179 0.053051125 -0.12865311
000010 05 11 f8 3c a0 4b c5 bd 05 53 42 bd 59 37 80 3d
       0.030281553 -0.09633565 -0.047442455 0.06260557
000020 0e 79 19 bc 3d 9b ca 3d de b2 49 be 02 33 91 bc
       -0.009367241 0.098928906 -0.19697139 -0.017724518
000030 76 91 ba bd 52 e1 ee 3d 21 79 3f be c8 e5 87 be
       -0.09109776 0.1166407 -0.18698551 -0.26542497
000040 89 4f ed 3d 7e cd d7 bd ab de 64 3d f0 58 e5 bc
       0.11587436 -0.105372414 0.055876415 -0.02799651
000050 18 53 ed bb 8c d8 fb bc 4c 8c 36 3a d4 89 c2 bc
       -0.0072425716 -0.030742906 0.0006963655 -0.023747362
000060 ea 76 1f 3e ac f7 49 3e 17 8b a6 bd 79 8f a0 3d
       0.15572706 0.19723386 -0.08131998 0.07839865
000070 02 a0 1e 3e 6e 30 bb be 6e 5b 5f 3d 81 b8 56 be
       0.15490726 -0.36560386 0.054530554 -0.2096882
000080 ad bc e4 bd d7 27 fa bd 45 fc fd 3c c9 08 63 bc
       -0.111687995 -0.1221463 0.03100408 -0.013857075
000090 e2 85 63 3e 1e 81 0c bc fb 9d 06 3d 1a 95 4c 3d
       0.22219041 -0.008575706 0.032865506 0.04994688
0000a0 63 c7 78 bd e7 62 9d bd 56 cb c2 3d 49 20 18 be
       -0.060737025 -0.0768488 0.095114395 -0.14856066
0000b0 d8 05 e2 bd 46 fe c0 3d 63 0a 4c 3d 3f f0 56 bd
       -0.11036271 0.09423499 0.049814593 -0.05247521
0000c0 44 d3 08 3c cf c8 9f be c7 2e 96 bd cf 78 11 3d
       0.008351151 -0.31207892 -0.07333141 0.035515603
0000d0 a8 34 2c be bc 69 fe bd 2c aa 60 bc 9b ec bd 3c
       -0.16816962 -0.12422511 -0.013712447 0.023184111
0000e0 64 ca bb bd 26 2a 08 3e 31 87 8a 3d ba 17 42 3d
       -0.09169462 0.13297328 0.06764067 0.04738591
0000f0 60 12 ed 3c 6b ff 0a 3e d1 e8 2b be bd 78 58 3e
       0.028939426 0.13573997 -0.16788031 0.21139808

layers.1.running_var f4 [64]
000000 ed b4 66 3d dd 77 ae 3c 06 82 ec 3c 69 c9 49 3d
       0.056324888 0.02129739 0.028870594 0.049264345
000010 23 a2 00 3d aa 74 38 3d 90 7f 30 3d 26 0d b4 3d
       0.031404626 0.045033135 0.043090403 0.0879157
000020 45 7c 28 3d 8b 0d c9 3c 8a a2 24 3d 47 95 91 3d
       0.041134138 0.02454259 0.04019407 0.071085505
000030 99 92 3d 3d d1 1a f7 3c 4e 0a 0b 3d db 25 0b 3d
       0.046282385 0.030164154 0.033945374 0.03397165
000040 9f de 1a 3d d8 ef 37 3d 77 9c 71 3d 41 59 21 3d
       0.037809964 0.044906467 0.058987107 0.03939176
000050 a4 46 5f 3d 80 a1 f8 3c 25 9b 0b 3d 19 e7 23 3d
       0.054510728 0.030350447 0.034083504 0.040015314
000060 87 a2 37 3d 01 bd 30 3d 36 d9 df 3c 97 0c 56 3d
       0.044832733 0.043149 0.027325254 0.0522581
000070 c3 e4 61 3d 77 67 16 3d ca 5a 52 3d 97 ce c6 3c
       0.055149805 0.036719766 0.051356114 0.024268432
000080 47 4f be 3d 25 0b 03 3d 67 39 0f 3d c8 54 00 3d
       0.09292465 0.03199305 0.034966853 0.031330854
000090 9f 12 02 3d 79 b5 3e 3d e5 c0 30 3d d6 bc 14 3d
       0.03175604 0.046559785 0.04315271 0.0363129
0000a0 cb 48 dc 3c 17 f6 cd 3c 32 40 12 3d 17 82 31 3d
       0.02689018 0.025141759 0.035705753 0.043336954
0000b0 cf ba c5 3c 38 47 14 3d 5a 13 dc 3c af cd 02 3d
       0.024136929 0.036200732 0.026864696 0.031934436
0000c0 2c b9 93 3d f3 8b f0 3c 6e 17 f0 3c 6e 5b 91 3c
       0.07213053 0.029363608 0.029308047 0.017743792
0000d0 fb 82 9b 3c b6 b5 aa 3c 42 ca ee 3c 77 5a e1 3c
       0.018983355 0.0208386 0.029149178 0.027508957
0000e0 0f 6c 03 3d 66 81 79 3d 81 c6 1a 3d 9b f4 2b 3d
       0.032085475 0.06091442 0.037786964 0.04198132
0000f0 ed 10 f5 3c ef 08 34 3d 54 eb 21 3d dd 66 d8 3c
       0.029915297 0.043953832 0.039531067 0.026416237

layers.4.weight f4 [32, 64]
000000 b0 60 47 bc 2f a1 e4 b9 5f 92 dd ba 9a 5e 8b bd
       -0.012169048 -0.0004360764 -0.0016904584 -0.06805153
000010 9a eb 36 bd c6 99 02 bc fc d4 44 bb 12 e3 66 bc
       -0.04465828 -0.007971233 -0.0030034175 -0.014092224
000020 d4 10 85 bc 41 03 7a bd 09 e1 e4 3c 95 f8 a0 3c
       -0.016243376 -0.06103826 0.027939336 0.019649783
000030 98 e3 40 3c 1e 0b 4e bd 97 ba 27 3d fb 3d 94 3c
       0.011773013 -0.05030357 0.04094943 0.01809596
000040 15 c5 48 bd e1 88 22 3d 42 80 f7 bc ee d5 ff 39
       -0.049016077 0.03968132 -0.030212525 0.0004879678
000050 6f cd ed bc c7 18 c4 3b c2 33 ed ba fb 9c 66 bc
       -0.029028622 0.005984399 -0.001809709 -0.014075513
000060 49 78 f1 bc b8 69 71 bd ea fb 40 3b 31 ef fa bc
       -0.029476302 -0.058938712 0.0029447027 -0.030631633
000070 7c f0 fb 3c 50 f8 02 bd e7 b7 8e bc c1 70 a0 3c
       0.03075432 -0.03197509 -0.017421676 0.019585015
000080 bb c9 cd bc 6f 06 b8 bb 67 e8 07 3d 01 b9 31 3d
       -0.025120607 -0.0056160013 0.03318062 0.043389324
000090 7e 6e d1 bc 65 34 af bc a0 62 c9 bc 10 8c 6d bc
       -0.025565382 -0.021387288 -0.02458316 -0.0144987255
0000a0 08 c2 9e bc 4c 15 29 3d 66 b0 0c bd e7 46 a6 bc
       -0.01937963 0.041280076 -0.034347914 -0.02029748
0000b0 e3 a9 10 bd 33 8e 9c bc 52 0f dd 3b 33 cb 5f 3b
       -0.035318267 -0.019110775 0.006746211 0.0034148216
0000c0 88 4f 7d bc 3f 45 22 3d 6e 27 50 bd 12 c4 21 3b
       -0.015460856 0.03961682 -0.050818853 0.0024683517
0000d0 68 40 12 3d c0 bf 9f bc a4 f6 67 bc 23 03 8f 3c
       0.035705954 -0.019500613 -0.014157925 0.01745755
0000e0 79 87 a9 bc ff b7 9b bc 00 36 ee 3c 9c 08 a8 3b
       -0.020694481 -0.019008635 0.029078484 0.0051279794
0000f0 aa b0 6e bd 91 fc 3c bd 8b ee 9a bc b1 3a 19 bc
       -0.05827395 -0.046139304 -0.018912574 -0.009352372
000100 f2 12 6e bc 49 86 13 bd 60 de 69 3c 68 6e fe 3c
       -0.014530884 -0.036016736 0.01427421 0.031058505
000110 c8 95 19 bc 16 42 db bc 1e 05 96 3c 6f e1 4f 3b
       -0.00937409 -0.02676491 0.018312987 0.0031720062
000120 cb 6e cf 3c 13 26 23 bd 4a 84 d8 3c 75 7d 87 3a
       0.025321385 -0.039831232 0.026430268 0.0010337072
000130 58 f7 41 bc 48 22 66 bb e3 9c 93 bd b3 04 9b bc
       -0.0118387565 -0.0035115648 -0.07207658 -0.01892314
000140 64 71 c3 bc 9d e0 54 bd c2 ea 6c bd 1b 94 23 3c
       -0.02385778 -0.05197202 -0.05784107 0.009984042
000150 01 b1 b9 3c 1d f1 e1 bc 7a 1b 59 bc f6 61 86 bc
       0.02266741 -0.027580792 -0.01325118 -0.016404133
000160 21 b2 5f 3d 9d 45 86 3d 1e 1a 78 3b 3c 39 ba 3c
       0.054613236 0.065562464 0.0037857364 0.02273237
000170 b6 ef 0f bd ac b9 3c bd b5 8e 48 3b 94 ce 09 3c
       -0.035140716 -0.046075508 0.0030602638 0.0084110685
000180 30 66 60 3d 15 53 20 bc f0 05 9d 3d 8a ef af bd
       0.054784954 -0.009785433 0.07667148 -0.0859061
000190 25 c5 8b bc 5b 25 0a 3c 63 49 5e bd c1 f3 8c bd
       -0.01706178 0.008431758 -0.054269206 -0.0688243
0001a0 a0 4c 0c 3d f6 cb d2 bd 1e b1 94 bc 65 6c 29 3b
       0.034252763 -0.10292809 -0.018150862 0.0025851962
0001b0 69 f4 82 bc 2d 61 5d bd d3 01 b8 bc 5c ae 2c bd
       -0.015985684 -0.054047752 -0.022461807 -0.04215847
0001c0 39 43 8f 3d 90 32 e5 bc 32 e0 08 bd 8c dd 82 3c
       0.069952436 -0.027978212 -0.033416934 0.015974782
0001d0 a8 cf 76 bc 34 45 6d bb ad b1 d6 bc a5 be 95 bd
       -0.015064158 -0.0036204578 -0.02620777 -0.07311753
0001e0 e4 7d a4 bc e9 9f 46 3b 5d 95 96 bc 42 a3 12 bc
       -0.02007956 0.0030307716 -0.018381769 -0.0089500565
0001f0 de c9 15 bd 58 5b e4 3b 0b 4e c3 3c bc 21 05 bd
       -0.03656947 0.006968897 0.023840925 -0.032502875
000200 5e c9 1a 3d d2 80 6c bd 7a c7 36 bc 82 d6 98 3c
       0.037789695 -0.05774004 -0.011155957 0.018656973
000210 92 e7 f6 3c 71 5b fb bc 67 65 23 3c fa 15 4b 39
       0.030139718 -0.030683251 0.009972907 0.00019367776
000220 85 aa 81 bd 8f e3 ba bc b4 99 4e 3c de 6e 86 3c
       -0.06331352 -0.022813587 0.012609888 0.016410287
000230 d6 59 0a bd 7e 67 80 bc 4b ca 17 3c 00 a0 90 bd
       -0.03377708 -0.015674349 0.009264539 -0.070617676
000240 78 56 9e 3a 41 b3 21 bd 3a 17 83 bd 12 5a b8 bc
       0.0012080213 -0.03947759 -0.064009145 -0.022503886
000250 7a c1 e4 bb 9b 55 b8 bc e6 53 fb 3b a3 78 8d bc
       -0.006981072 -0.022501757 0.0076699136 -0.017269438
000260 09 bf 42 b9 6d 78 1e 3d 78 39 92 bc ce 0a c7 3c
       -0.00018572448 0.038689066 -0.017849669 0.024297144
000270 3c 37 78 3c c4 4e ac 3d bc 5b 08 be 7c 7c 3f bd
       0.015149888 0.08413461 -0.13316244 -0.046749577
000280 28 2f 83 bc 2f 9c 59 bd f3 4b a3 bd a1 d4 16 bc
       -0.016013697 -0.053127464 -0.079734705 -0.009205968
000290 9d ad 14 bd 65 ab 7f bd 6a cd 88 3c 3b e5 80 3d
       -0.036298383 -0.062419314 0.016699512 0.06293722
0002a0 fe 9a 8c bd 8b 07 d5 3c eb fc b4 3c a8 47 4c bd
       -0.068655 0.026004573 0.022093257 -0.049873024
0002b0 50 14 ea 3c 4d c8 55 3d 16 b1 5b bd 90 8a d7 b9
       0.028574139 0.052192975 -0.05363568 -0.00041111233
0002c0 5e 27 0a 3d 5d 83 f2 3c 2d a7 af 3d df 1b b0 bc
       0.03372895 0.029603655 0.08576808 -0.021497665
0002d0 aa 73 05 be 4d 0d e0 3c ac 5c 95 bc ff c9 99 bd
       -0.13032404 0.027350092 -0.018232666 -0.07509231
0002e0 03 fc 3f be fc b4 1d bd a1 53 01 3c ab fe 20 bc
       -0.18748479 -0.03850268 0.007893474 -0.009826343
0002f0 bc 7e 76 3d 3c 24 32 3d 00 e1 f7 3c 52 0a 3c bd
       0.060179457 0.043491587 0.030258656 -0.04590828
000300 8e 4f 4b 3d a5 f8 01 3c 79 16 00 be dc 9e 60 3b
       0.049636416 0.007932817 -0.12508573 0.0034274375
000310 3e 2a 37 bc a8 9c bf bc 07 82 d9 3c 79 94 3d bc
       -0.011179505 -0.02339013 0.02655126 -0.011571043
000320 09 93 03 bd df 34 c1 bc 58 7d ba 39 ce 76 d9 bb
       -0.032122646 -0.023584781 0.00035570073 -0.006636477
000330 85 53 3d 3b 5a 07 7d bd ec 54 81 3d 34 24 7a bd
       0.0028888893 -0.06177459 0.06315026 -0.061069682
000340 6d 90 71 bc ea 1c fd 3d 0f 19 89 bd 04 e4 41 bd
       -0.014743906 0.123590305 -0.06694233 -0.047336593
000350 5f 96 15 bb 98 3f f9 bc 91 5c 13 bd 73 13 a1 bd
       -0.0022825224 -0.030425832 -0.03597695 -0.07865038
000360 80 a0 db bc 9e 65 78 3c 47 e8 26 bb 6e 0f e0 3c
       -0.02680993 0.015160946 -0.0025468038 0.027351107
000370 06 a6 9e 3d 43 70 e2 bc c2 4d b9 3c b8 b7 bc bd
       0.0774651 -0.027641421 0.022620086 -0.09214729
000380 5c b4 b6 3c 94 64 ac bd ab a0 60 bd 6d 9d 8b 3d
       0.022302799 -0.08417621 -0.054840725 0.06817136
000390 4e 0e 8e 3b 09 48 19 bc 4f 20 4f bd 74 02 87 3d
       0.0043352013 -0.009355553 -0.05056792 0.06592265
0003a0 b7 55 aa bd 7c 0f ab 3d cb d5 40 bc d4 e2 2e 3d
       -0.0831713 0.08352563 -0.011769722 0.04269679
0003b0 77 49 30 3d 02 73 ab 3c 77 0d 27 3c 2e 7f 53 bb
       0.04303881 0.020928863 0.010196081 -0.003227185
0003c0 5a 25 14 3d 6f ea 4a 3d 76 52 c8 bb 8d 69 83 3c
       0.036168434 0.04953998 -0.0061133457 0.016041541
0003d0 06 56 c2 bd 08 a1 b2 bc d8 2e 5f bd 98 28 b6 bd
       -0.09489064 -0.021805301 -0.054488033 -0.088944614
0003e0 34 ea 52 bd 3c 8a cc bc 8e af 63 3d 71 22 70 3c
       -0.051492885 -0.024968259 0.055587344 0.014656649
0003f0 3c 81 c1 bd 5d 88 86 bc a9 13 02 3c 2f 4b 98 bd
       -0.094484776 -0.016422445 0.007939258 -0.07436215

layers.4.bias f4 [32]
000000 3d 43 17 b7 e1 0b a3 b3 35 e1 32 b4 02 1e 65 32
       -9.0159565e-06 -7.59244e-08 -1.6659472e-07 1.3336377e-08
000010 f6 fc 84 36 02 23 1d 32 ec 53 83 b6 b6 2c af 35
       3.963355e-06 9.146563e-09 -3.913874e-06 1.3051529e-06
000020 94 8f 34 b6 59 b6 b6 b1 ae b1 2d b5 40 5b 98 b4
       -2.6905664e-06 -5.3176277e-09 -6.470608e-07 -2.83786e-07
000030 d1 ba 25 35 f4 7d 03 b2 84 3f 04 37 68 f8 86 b6
       6.1739144e-07 -7.653842e-09 7.8826015e-06 -4.0224295e-06
000040 a8 43 8b 30 60 b8 2c b6 88 37 d0 b3 00 ac 12 2f
       1.013281e-09 -2.5737318e-06 -9.695856e-08 1.333973e-10
000050 12 2e 02 35 2c 98 3e 36 2c 6e 40 36 1e 60 3e b2
       4.8495815e-07 2.8400782e-06 2.8674358e-06 -1.108131e-08
000060 14 03 02 32 1f d4 39 b3 34 55 d5 b7 0c 78 bf b4
       7.567696e-09 -4.3266592e-08 -2.5431254e-05 -3.5663868e-07
000070 ec b7 3f b0 12 35 17 b2 2c d4 1c b3 92 64 be b4
       -6.9746764e-10 -8.801424e-09 -3.651455e-08 -3.5463432e-07

layers.5.weight f4 [32]
000000 ae 4b df 3e e5 22 1b 3f b1 8a 64 3f 9b ea 5c 3f
       0.43612427 0.6060012 0.89274126 0.8629548
000010 a6 41 11 3f 22 57 61 3f 17 7e 68 3f 8b 2e 0f 3f
       0.56740797 0.8802358 0.908174 0.55930394
000020 3b a2 58 3f 50 eb 5b 3f f0 1d 6a 3f 6f ac 0b 3f
       0.84622544 0.85905933 0.9145193 0.5455999
000030 08 9a 09 3f bd 75 04 3f cd a5 5e 3f fe d0 5a 3f
       0.5375066 0.51742154 0.8697174 0.85475147
000040 c7 d9 0f 3f 4c fc 62 3f c6 32 50 3f 6a 02 15 3f
       0.56191677 0.88666224 0.81327474 0.5820681
000050 ae c8 5b 3f 9a a9 1c 3f 84 d3 58 3f b9 86 4e 3f
       0.8585309 0.6119629 0.8469775 0.8067432
000060 a9 a3 0f 3f 03 bf 2f 3f e3 23 30 3f 9b 02 66 3f
       0.561091 0.68650836 0.6880476 0.89847726
000070 7d b1 1c 3f 24 e3 18 3f 72 13 f4 3e ce 15 1f 3f
       0.61208326 0.5972159 0.47671086 0.62142646

layers.5.bias f4 [32]
000000 32 b1 90 3d 47 c3 18 3e 49 43 9d bd 48 f5 fc bc
       0.07065047 0.14918242 -0.07678849 -0.030878678
000010 97 7e 1f 3e 1e 21 c4 bd b5 d9 83 3b fc ef df 3d
       0.15575634 -0.09576629 0.0040237554 0.10934445
000020 67 b1 1e bb d7 37 9b bd 78 72 9e bd d7 cc 01 3e
       -0.0024214627 -0.0757901 -0.07736677 0.12675796
000030 25 e7 da 3d 32 80 89 3d fe fe b6 bd 04 93 10 be
       0.106886186 0.067139044 -0.08935355 -0.14118582
000040 af 45 61 3d 6c b8 52 bd 5f 1f a0 bd f3 c1 35 3d
       0.054998096 -0.05144541 -0.078184836 0.044374418
000050 2c eb 5e bd d3 75 db 3d f0 01 63 bd c9 f0 c7 bd
       -0.054423496 0.107158326 -0.05542177 -0.09762723
000060 6d 87 8c 3c 61 3f 63 bc 80 4a 37 bd d6 d1 0a be
       0.01715442 -0.013870091 -0.044748783 -0.13556609
000070 b1 9c 2e 3d 3f 7a ac 3c 49 ca dd 3d f3 a6 18 3e
       0.0426299 0.021054385 0.108295985 0.14907436

layers.5.running_mean f4 [32]
000000 c7 e8 f7 bd b4 6f 04 be 28 84 2c be fb 22 22 be
       -0.12104946 -0.12933236 -0.16847289 -0.15833656
000010 55 ca 1f be 9a 93 dc bd ed b5 78 bd 0d cb 50 be
       -0.15604527 -0.1077034 -0.060720373 -0.20389958
000020 bc 75 93 bd f9 33 4d be aa 3a fa bd fb 4d 25 be
       -0.072001904 -0.20039357 -0.122182205 -0.16143028
000030 5d 2c 32 be 93 a7 4b bd 45 14 34 be d6 79 84 be
       -0.17399736 -0.049720358 -0.17585857 -0.25874203
000040 f6 a9 f8 bd c5 b9 7b be c9 cc e2 bd 60 9f c9 bd
       -0.121417925 -0.24582584 -0.11074216 -0.098448515
000050 76 a6 ac bd be fc 5f be 34 e4 ce bd 43 b6 52 be
       -0.084301874 -0.21873757 -0.1010212 -0.2057734
000060 42 b7 9c 3d 75 4a 72 3e ec 48 5f 3e 1a 2e 19 be
       0.07652141 0.23661216 0.21805161 -0.14958993
000070 fa 87 03 3e c5 91 a8 3d fc 9a 3f bd 7c 1b 0c be
       0.1284484 0.08230928 -0.046778664 -0.1368236

layers.5.running_var f4 [32]
000000 1a ca 17 3c a3 dd fa 3c 42 50 bf 3d 05 86 54 3d
       0.009264493 0.030623263 0.0934148 0.051885623
000010 31 f6 82 3c 7e 50 68 3d 4c a5 99 3d cb 75 9f 3c
       0.015986534 0.05671739 0.07502231 0.019465348
000020 f3 16 b9 3d f3 f3 62 3d 3a 5c bc 3d 54 e8 90 3c
       0.0903758 0.05540843 0.09197278 0.017688908
000030 dc 13 84 3c 10 6f ca 3c 90 3b 6e 3d b9 e2 0b 3d
       0.016122751 0.024711162 0.058162272 0.034151766
000040 a5 9b 9b 3c 13 9b 8a 3d 80 d5 14 3d b3 c4 ac 3c
       0.018995116 0.06767859 0.036336422 0.021089887
000050 70 f5 51 3d 46 8f d3 3c 6b 20 6f 3d b8 46 2c 3d
       0.051259458 0.025825154 0.058380526 0.04205963
000060 18 d1 92 3c f1 a1 fd 3c 50 74 e3 3c aa f5 8c 3d
       0.01792197 0.030961009 0.027765423 0.06882794
000070 63 4a f6 3c 44 14 bc 3c 14 3e 9f 3c d0 51 b9 3c
       0.030064767 0.022958882 0.01943878 0.022622019

layers.8.weight f4 [1, 32]
000000 ca 7a fc bd f2 35 e1 bd cb 27 eb 3d 9f 6b ec 3d
       -0.12328108 -0.109966174 0.11482199 0.115439646
000010 e0 ea ce bd f5 95 00 3e 3f 44 c6 3d 38 cf d2 bd
       -0.101033926 0.12557204 0.09680986 -0.1029343
000020 36 7b f2 3d f7 52 eb 3d 71 e7 e8 3d b5 d3 e8 bd
       0.11839907 0.11490434 0.11372269 -0.11368505
000030 02 2f df bd bc cc af bd 59 b9 cf 3d 9c af 01 3e
       -0.10897638 -0.08583972 0.10142774 0.12664646
000040 f7 6e db bd 3d a8 13 3e 17 a8 e0 3d 7a 03 c1 bd
       -0.10714524 0.14419647 0.109695606 -0.09424491
000050 0c c6 d9 3d de 29 f9 bd 92 38 ce 3d 3e e3 e0 3d
       0.106334776 -0.12166189 0.10069384 0.10980843
000060 e2 57 bf bd ba 6e dd bd d9 45 d7 bd 30 11 ed 3d
       -0.09342934 -0.10812135 -0.10511369 0.11575544
000070 0c 24 cc bd ec 4e b9 bd 85 52 ae bd 19 97 ec bd
       -0.09967813 -0.09048256 -0.08511833 -0.11552257
